Master/app/src/main/assets/test_model.tflite (tflite, 3528 bytes, 5 tensors)

arith.constant f4 [1, 8]
0.33450115 -0.5659601 -0.8610968 0.18006617 -0.3065606 0.17435054 -0.7732962 -0.49207386
00000000: bc43 ab3e c3e2 10bf d770 5cbf 4463 383e
00000010: 83f5 9cbe f388 323e bdf6 45bf 1bf1 fbbe

arith.constant1 f4 [8, 16]
-0.30313912 0.43405977 0.28286597 -0.5799399 -0.4884907 -0.20670138 0.056887217 0.35447446
0.42762285 -0.28549695 -0.29899412 -0.49180806 -0.5812924 0.31358945 -0.32381573 -0.053424247
-0.2857138 -0.23922542 0.06187787 0.34382927 -0.15735708 -0.23773907 -0.35236344 -0.12025425
-0.0037793464 0.42752254 0.5439976 0.107578285 -0.06730335 0.33523133 -0.22808883 -0.07267273
0.09571473 0.46693 0.102942206 0.18263553 -0.07559971 -0.059285358 0.23894867 0.00203942
-0.26969725 -0.3614279 -0.088487394 -0.21646927 -0.20718488 -0.38377756 -0.26522604 -0.39043185
-0.13600607 0.4385994 0.3456794 -0.055642016 0.1436134 0.4332116 0.094868265 -0.11178632
0.11416893 -0.32278714 0.32732216 0.48332244 0.10373612 0.32880357 -0.0428353 0.19701697
-0.16452901 -0.10917173 0.20614526 0.030533297 0.083899684 -0.3309331 0.21359259 0.059298884
0.5780606 -0.33089954 -0.5991853 0.22281952 0.08337848 -0.2932423 -0.367349 0.34422153
-0.45947585 0.595812 0.0005791634 -0.08502042 0.3796191 0.07861064 -0.37179106 -0.39424103
0.13357276 -0.30770677 -0.24435881 0.5203501 0.11029099 0.11513737 0.4766779 0.105713084
0.2584587 -0.42448458 0.43484482 -0.020281317 0.19444816 0.32998964 -0.48533556 0.27939576
0.08216188 -0.51280093 -0.33066374 -0.3787415 -0.26294085 -0.26080868 0.40433234 0.15434456
0.3084785 0.06437826 0.026039967 0.061872214 0.15059336 0.0046542846 0.4247981 0.45674628
0.2903184 -0.2434402 -0.271763 -0.189886 0.31178123 -0.40989655 0.06129411 -0.28714857
00000000: 0d35 9bbe 153d de3e cfd3 903e f176 14bf
00000010: 741b fabe 87a9 53be 9202 693d ad7d b53e
00000020: 62f1 da3e a82c 92be c215 99be 44ce fbbe
00000030: 94cf 14bf cc8e a03e 2dcb a5be 62d3 5abd
00000040: 1449 92be 82f7 74be a673 7d3d 640a b03e
00000050: 3722 21be df71 73be fb68 b4be dc47 f6bd
00000060: e9ae 77bb 3ce4 da3e 6d43 0b3f 0152 dc3d
00000070: 57d6 89bd 71a3 ab3e 1e90 69be 71d5 94bd
00000080: 1606 c43d 7311 ef3e 5dd3 d23d cf04 3b3e
00000090: 05d4 9abd 34d5 72bd f6ae 743e caa7 053b
000000a0: c215 8abe 140d b9be e138 b5bd 1faa 5dbe
000000b0: 4628 54be 7e7e c4be b5cb 87be afe6 c7be
000000c0: 2d45 0bbe 1a90 e03e e4fc b03e e2e8 63bd
000000d0: 640f 133e e9cd dd3e 4b4a c23d 3af0 e4bd
000000e0: 66d1 e93d 5b44 a5be c596 a73e 0a76 f73e
000000f0: 9a73 d43d f158 a83e 1174 2fbd d1be 493e
00000100: 4b7a 28be 6e95 dfbd be17 533e f720 fa3c
00000110: 99d3 ab3d 1070 a9be 04b8 5a3e 63e3 723d
00000120: c8fb 133f aa6b a9be 3564 19bf cd2a 643e
00000130: 56c2 aa3d db23 96be 2b15 bcbe ce3d b03e
00000140: 6b40 ebbe 2387 183f ffd2 173a 301f aebd
00000150: 6f5d c23e 9dfe a03d 665b bebe f6d9 c9be
00000160: 4cc7 083e be8b 9dbe 3239 7abe aa35 053f
00000170: 3ee0 e13d 24cd eb3d 200f f43e 1a80 d83d
00000180: b354 843e 0b56 d9be fba3 de3e 0125 a6bc
00000190: 6b1d 473e 67f4 a83e e77d f8be f60c 8f3e
000001a0: 7d44 a83d ec46 03bf c24c a9be 68ea c1be
000001b0: 2fa0 86be b788 85be a604 cf3e 800c 1e3e
000001c0: e5f0 9d3e c0d8 833d c551 d53c b86d 7d3d
000001d0: 2535 1a3e f882 983b 237f d93e a6da e93e
000001e0: 9da4 943e 6348 79be 8524 8bbe 7a71 42be
000001f0: caa1 9f3e f6dd d1be 880f 7b3d 2305 93be

sequential_1/dense_1_2/Add/ReadVariableOp f4 [8]
-0.051125508 -0.0052776467 0.053755175 0.014622368 -0.013466779 0.09213429 -0.016786039 -0.028248375
00000000: fb68 51bd 1cf0 acbb 632e 5c3d a892 6f3c
00000010: c4a3 5cbc e7b0 bc3d e082 89bc 2369 e7bc

sequential_1/dense_1/Add/ReadVariableOp f4 [16]
0.040753853 0.07006093 -0.010487687 -0.0040051844 0.014447872 -0.006217443 0.025056073 -0.0018056774
-0.014628307 -0.00026485958 0.064118154 -0.019895358 0.032505393 0.060007703 0.008400176 -0.0690878
00000000: 83ed 263d 1b7c 8f3d 8cd4 2bbc ec3d 83bb
00000010: c4b6 6c3c b1bb cbbb 6542 cd3c 7bac ecba
00000020: 91ab 6fbc dadc 8ab9 6150 833d 97fb a2bc
00000030: 6024 053d a3ca 753d e4a0 093c e87d 8dbd

sequential_1/dense_1/MatMul f4 [16, 13]
0.37722626 0.24142922 -0.48110086 -0.26899165 -0.32373893 0.12054547 0.2840761 -0.031277914
0.124988295 0.067757055 0.3171528 -0.4076434 -0.07062013 0.21619369 -0.23043174 0.338043
-0.10096255 0.38435516 -0.37765315 -0.057099033 -0.54052436 -0.095262654 -0.31780228 -0.27378514
0.07567635 -0.19235563 -0.17513585 -0.38949826 0.4386438 0.11028216 0.47646987 -0.23476347
0.17117706 0.07237757 0.3059821 -0.45087695 -0.38186932 -0.39911675 -0.3219913 -0.36810574
0.25080004 0.38395396 -0.17034371 -0.47614118 0.20100304 -0.21261336 0.07262142 0.270739
-0.043643456 -0.07759428 0.2739102 0.3174409 0.2525306 -0.4216719 -0.25216526 0.30896345
-0.35094765 -0.3680743 -0.3906033 0.46019572 0.048025846 -0.20041591 -0.30228585 0.04630143
0.12667063 0.09461868 -0.068365976 0.33105552 -0.40270123 0.23078479 -0.3406269 0.23154922
0.29752058 -0.28234306 0.49588275 -0.22507954 -0.30007166 0.35063943 -0.34973294 -0.010460835
0.08437894 -0.4877577 0.29134423 0.4180162 0.33381248 -0.46115738 0.3626972 -0.011548125
0.24230587 -0.033260744 -0.12597558 -0.18056476 0.2133678 -0.05464028 0.10971946 -0.21119288
0.30578908 0.47194108 0.13547821 0.39175716 0.4490839 0.45114732 0.04080626 -0.22854954
-0.24952635 -0.029074397 0.42214528 -0.32850695 0.43574926 -0.23267697 0.35961708 -0.040535506
-0.06634871 0.43048614 0.46453506 0.3034258 -0.13149402 -0.23256107 0.3282059 0.22982965
0.1558419 -0.3050972 0.32806668 0.10846798 -0.28712705 -0.2782018 -0.33069527 0.31755713
0.3468449 0.16811758 -0.076472655 0.03351292 -0.28575468 0.3018933 0.36852577 -0.3025786
0.41359985 -0.28532842 -0.15273258 0.40503442 -0.14527543 -0.23525777 -0.02842626 0.27562818
0.048869517 -0.28371367 -0.13818286 -0.23634435 -0.4196644 -0.09462373 0.19935247 0.09661966
-0.023822146 -0.10351083 0.22757152 -0.3831739 -0.07742773 0.4225316 0.10862569 0.2637961
0.28357485 0.2198533 -0.16114806 0.10884054 -0.11903187 -0.1287691 -0.21720913 0.100163326
0.18678033 0.05814515 0.3005594 0.17426506 -0.32250434 -0.12950262 -0.1031083 0.4072045
0.0047343834 0.027563078 0.11887287 0.08591635 0.15965958 -0.07875066 0.43707964 -0.10763396
0.20851746 -0.254076 -0.17458995 0.32785767 0.052569885 0.20219703 -0.041943066 0.31505936
-0.2866376 0.3964696 0.4238751 0.2716253 -0.45513648 -0.19914167 0.34653386 -0.0775582
-0.37309787 -0.2951471 -0.2690962 0.011666495 -0.27997243 -0.40421444 0.16727006 0.054321337
00000000: cd23 c13e 3939 773e da52 f6be 46b9 89be
00000010: 1cc1 a5be 8be0 f63d 6c72 913e 451d 00bd
00000020: ddf9 ff3d 36c4 8a3d da61 a23e a3b6 d0be
00000030: 49a1 90bd e161 5d3e 4cf6 6bbe f913 ad3e
00000040: 74c5 cebd 33ca c43e c15b c1be ade0 69bd
00000050: ce5f 0abf 1119 c3bd fbb6 a2be 912d 8cbe
00000060: 34fc 9a3d e0f8 44be d056 33be 516c c7be
00000070: ec95 e03e 9ddb e13d dcf3 f33e d665 70be
00000080: 0a49 2f3e b13a 943d b0a9 9c3e 58d9 e6be
00000090: 6084 c3be 0859 ccbe 0bdc a4be 5b78 bcbe
000000a0: dd68 803e 9d95 c43e 956e 2ebe c7c8 f3be
000000b0: bed3 4d3e 51b7 59be 8aba 943d 4d9e 8a3e
000000c0: 7bc3 32bd c0e9 9ebd f53d 8c3e 9d87 a23e
000000d0: b14b 813e 61e5 d7be ce1b 81be 7530 9e3e
000000e0: 69af b3be 3c74 bcbe 28fd c7be c69e eb3e
000000f0: c0b6 443d d439 4dbe 36c5 9abe 91a6 3d3d
00000100: f2b5 013e 70c7 c13d 7603 8cbd 1c80 a93e
00000110: db2e cebe d952 6c3e a666 aebe 3d1b 6d3e
00000120: 9e54 983e 458f 90be 58e4 fd3e 407b 66be
00000130: fea2 99be 0387 b33e 3210 b3be ec63 2bbc
00000140: dece ac3d 61bb f9be 122b 953e 3806 d63e
00000150: 78e9 aa3e d21c ecbe 73b3 b93e 5934 3dbc
00000160: 081f 783e 6b3c 08bd beff 00be f8e5 38be
00000170: 177d 5a3e 7cce 5fbd 99b4 e03d f242 58be
00000180: 6390 9c3e 43a2 f13e cdba 0a3e 6594 c83e
00000190: 53ee e53e c8fc e63e 7724 273d e408 6abe
000001a0: d683 7fbe 6e2d eebc 6d23 d83e 1032 a8be
000001b0: 871a df3e df42 6ebe bb1f b83e 8f08 26bd
000001c0: d5e1 87bd ae68 dc3e 8ad7 ed3e a05a 9b3e
000001d0: 5ea6 06be 7d24 6ebe 9b0a a83e 7758 6b3e
000001e0: 0595 1f3e b335 9cbe 5bf8 a73e 7624 de3d
000001f0: 5102 93be 7770 8ebe e450 a9be d996 a23e
00000200: a895 b13e 0427 2c3e b29d 9cbd d844 093d
00000210: 704e 92be c291 9a3e 69af bc3e 95eb 9abe
00000220: 5cc3 d33e 9116 92be ee65 1cbe ac60 cf3e
00000230: 15c3 14be 6ae7 70be 30de e8bc 231f 8d3e
00000240: 672b 483d eb42 91be cf7f 0dbe 4104 72be
00000250: 41de d6be 16ca c1bd 0e23 4c3e 87e0 c53d
00000260: a926 c3bc 7cfd d3bd 8208 693e 5f2f c4be
00000270: 6e92 9ebd 1056 d83e 2577 de3d 4810 873e
00000280: b930 913e 3921 613e ff03 25be cae7 de3d
00000290: fbc6 f3bd 0cdc 03be 126c 5ebe 6e22 cd3d
000002a0: 5843 3f3e 9c29 6e3d ece2 993e 8a72 323e
000002b0: 4a1f a5be 569c 04be 722a d3bd 1c7d d03e
000002c0: e322 9b3b f7cb e13c 9f73 f33d e9f4 af3d
000002d0: cd7d 233e 0748 a1bd e7c8 df3e 326f dcbd
000002e0: 9a85 553e 4016 82be b5c7 32be f6dc a73e
000002f0: 8553 573d bd0c 4f3e 7ecc 2bbd 764f a13e
00000300: 2ac2 92be 10fe ca3e 2806 d93e 7912 8b3e
00000310: a607 e9be cbeb 4bbe e36c b13e d5d6 9ebd
00000320: af06 bfbe 851d 97be fac6 89be d424 3f3c
00000330: 8c58 8fbe 32f5 cebe d848 2b3e 0d80 5e3d
